…
90\nThe sparsity of the dataset: 99.92621942414438%\nRemain Fields: ['user_id', 'item_id', 'rating', 'timestamp', 'title', 'categories', 'brand', 'sales_type', 'sales_rank']\n05 Jan 18:27    INFO  [Training]: train_batch_size = [2048] train_neg_sample_args: [{'distribution': 'none', 'sample_num': 'none', 'alpha': 'none', 'dynamic': False, 'candidate_num': 0}]\n05 Jan 18:27    INFO  [Evaluation]: eval_batch_size = [4096] eval_args: [{'split': {'LS': 'valid_and_test'}, 'order': 'TO', 'group_by': 'user', 'mode': {'valid': 'full', 'test': 'full'}}]\n05 Jan 18:27    INFO  FEARec(\n  (item_embedding): Embedding(1548, 64, padding_idx=0)\n  (position_embedding): Embedding(50, 64)\n  (fea_encoder): FEAEncoder(\n    (layers): ModuleList(\n      (0-1): 2 x FEABlock(\n        (hybrid_attention): HybridAttention(\n          (query): Linear(in_features=64, out_features=64, bias=True)\n          (key): Linear(in_features=64, out_features=64, bias=True)\n          (value): Linear(in_features=64, out_features=64, bias=True)\n          (out_proj): Linear(in_features=64, out_features=64, bias=True)\n          (attn_dropout): Dropout(p=0.5, inplace=False)\n          (layer_norm): LayerNorm((64,), eps=1e-12, elementwise_affine=True)\n        )\n        (ffn): Sequential(\n          (0): Linear(in_features=64, out_features=256, bias=True)\n          (1): GELU(approximate='none')\n          (2): Linear(in_features=256, out_features=64, bias=True)\n        )\n        (layer_norm1): LayerNorm((64,), eps=1e-12, elementwise_affine=True)\n        (layer_norm2): LayerNorm((64,), eps=1e-12, elementwise_affine=True)\n        (dropout): Dropout(p=0.5, inplace=False)\n      )\n    )\n  )\n  (LayerNorm): LayerNorm((64,), eps=1e-12, elementwise_affine=True)\n  (dropout): Dropout(p=0.5, inplace=False)\n  (loss_fct): CrossEntropyLoss()\n)\nTrainable parameters: 202624\n05 Jan 18:27    INFO  FLOPs: 4940864.0",
      "feedback": "执行失败:\n[stderr]\n/app/recbole/recbole/config/configurator.py:654: FutureWarning: In the future `np.bool` will be defined as the corresponding NumPy scalar.\n  np.bool  # noqa: B018\ncom
…
