…
190\nThe sparsity of the dataset: 99.92621942414438%\nRemain Fields: ['user_id', 'item_id', 'rating', 'timestamp', 'title', 'categories', 'brand', 'sales_type', 'sales_rank']\n05 Jan 18:02    INFO  [Training]: train_batch_size = [2048] train_neg_sample_args: [{'distribution': 'none', 'sample_num': 'none', 'alpha': 'none', 'dynamic': False, 'candidate_num': 0}]\n05 Jan 18:02    INFO  [Evaluation]: eval_batch_size = [4096] eval_args: [{'split': {'LS': 'valid_and_test'}, 'order': 'TO', 'group_by': 'user', 'mode': {'valid': 'full', 'test': 'full'}}]\n05 Jan 18:02    INFO  GCSAN(\n  (item_embedding): Embedding(1548, 100, padding_idx=0)\n  (gnn): GNN(\n    (linear_edge_in): Linear(in_features=100, out_features=100, bias=True)\n    (linear_edge_out): Linear(in_features=100, out_features=100, bias=True)\n  )\n  (self_attention_layers): ModuleList(\n    (0-2): 3 x SelfAttentionLayer(\n      (W_Q): Linear(in_features=100, out_features=100, bias=False)\n      (W_K): Linear(in_features=100, out_features=100, bias=False)\n      (W_V): Linear(in_features=100, out_features=100, bias=False)\n      (W_1): Linear(in_features=100, out_features=400, bias=True)\n      (W_2): Linear(in_features=400, out_features=100, bias=True)\n      (dropout): Dropout(p=0.2, inplace=False)\n      (layer_norm1): LayerNorm((100,), eps=1e-05, elementwise_affine=True)\n      (layer_norm2): LayerNorm((100,), eps=1e-05, elementwise_affine=True)\n    )\n  )\n  (loss_fct): CrossEntropyLoss()\n  (reg_loss): EmbLoss()\n)\nTrainable parameters: 598500",
      "feedback": "执行失败:\n[stderr]\n/app/recbole/recbole/config/configurator.py:654: FutureWarning: In the future `np.bool` will be defined as the corresponding NumPy scalar.\n  np.bool  # noqa: B018\ncommand line args [-m GCSAN -d Amazon_Gift_Cards]
…
